…
2022-06-23 12:47:46.816223: I tensorflow/core/platform/cpu_feature_guard.cc:193] This TensorFlow binary is optimized with oneAPI Deep Neural Network Library (oneDNN) to use the following CPU instructions in performance-critical operations:  AVX AVX2
To enable them in other operations, rebuild TensorFlow with the appropriate compiler flags.
Found 240 files belonging to 12 classes.
['土豆', '圣女果', '大白菜', '大葱', '梨', '胡萝卜', '芒果', '苹果', '西红柿', '韭菜', '香蕉', '黄瓜']
Model: "sequential"
_________________________________________________________________
 Layer (type)                Output Shape              Param #   
=================================================================
 rescaling (Rescaling)       (None, 224, 224, 3)       0         
                                                                 
 conv2d (Conv2D)             (None, 222, 222, 32)      896       
                                                                 
 max_pooling2d (MaxPooling2D  (None, 111, 111, 32)     0         
 )                                                               
                                                                 
 conv2d_1 (Conv2D)           (None, 109, 109, 64)      18496     
                                                                 
 max_pooling2d_1 (MaxPooling  (None, 54, 54, 64)       0         
 2D)                                                             
                                                                 
 flatten (Flatten)           (None, 186624)            0         
                                                                 
 dense (Dense)               (None, 128)               23888000  
                                                                 
 dense_1 (Dense)             (None, 12)                1548      
                                                                 
=================================================================
Total params: 23,908,940
Trainable params: 23,908,940
Non-trainable params: 0
_________________________________________________________________
Epoch 1/30
62/62 [==============================] - 47s 748ms/step - loss: 2.4072 - accuracy: 0.1566 - val_loss: 2.2293 - val_accuracy: 0.2292
…
